dengue_stgnn_model.pth (torch, 600517 bytes, 55 tensors)

input_projection.weight f4 [64, 26]
0	0xbce84479	-0.028352963
1	0xbd53d8ca	-0.051720418
2	0xbd9e9046	-0.07742362
3	0xbe1d6a16	-0.153725
4	0xbd4651d7	-0.048417892
5	0xbdb9e26c	-0.0907639
6	0x3dd8d890	0.10588181
7	0x3e1088d6	0.14114699
8	0x3d8c6735	0.06855623
9	0x3e3b5456	0.1829389
10	0x3dee1c6e	0.11626516
11	0xbe03a656	-0.12856421
12	0xbdcf45e5	-0.10120753
13	0x3d8fd570	0.07023132
14	0xbdfb00d2	-0.12256016
15	0x3d385dc9	0.045011315
16	0xbdcf92cf	-0.101354234
17	0x3ccdac1e	0.025106486
18	0xbe183b7d	-0.14866443
19	0x3d468042	0.04846216
20	0x3de66d3c	0.112513036
21	0xbd98f37b	-0.07468315
22	0xbe2d27d7	-0.16909729
23	0xbe14448c	-0.14479274
24	0xbdeacdf1	-0.114650615
25	0xbe211b85	-0.15733154
26	0xbe10cf1e	-0.14141509
27	0x3e002b9c	0.12516636
28	0x3d0ed51f	0.034871217
29	0xbdc040c3	-0.09387352
30	0x3e0f956e	0.14021847
31	0x3e06dd6e	0.13170406
32	0xbda19ebe	-0.07891606
33	0x3e06d51c	0.13167232
34	0xbcdef336	-0.027215581
35	0xbe09dc33	-0.13462906
36	0xbcd7b907	-0.026333345
37	0xbc22149e	-0.009892611
38	0xbd1efd2d	-0.038815666
39	0xbdd902ef	-0.10596263
40	0xbde2e728	-0.11079246
41	0x3d821ac5	0.06352762
42	0x3dd6b7f4	0.10484305
43	0xbd8622a2	-0.065495744
44	0x3d6a0a7d	0.05713891
45	0xbdc4db25	-0.09612111
46	0x3e0e9e27	0.13927518
47	0x3e12a69a	0.14321366
48	0x3d5cdbcf	0.053920563
49	0xbdc0768c	-0.09397611
50	0xbdf373b6	-0.118873045
51	0x3e444696	0.19167551
52	0x3d8290d3	0.06375279
53	0xbc2f9095	-0.010715623
54	0xbdc2c6a0	-0.09510541
55	0x3c888ffc	0.01667022
56	0xbe1b5afd	-0.15171428
57	0xbe17f5e0	-0.14839888
58	0xbdf3e35a	-0.11908598
59	0x3cfe1977	0.031018002
60	0xbe0c8550	-0.1372273
61	0xbb359ccd	-0.0027711869
62	0x3e39a193	0.18128042
63	0xbd270eed	-0.04078572
64	0x3d7b9a06	0.061426185
65	0x3dadb05b	0.08480903
66	0x3ca9792a	0.020687658
67	0x3d9f32a0	0.07773328
68	0xbdbb6562	-0.091501966
69	0xbe0aee23	-0.13567404
70	0xbe463660	-0.1935668
71	0x3e140bba	0.14457598
72	0xbcd90607	-0.026492132
73	0xbe1e00a6	-0.15429935
74	0xbdaa83cc	-0.083259195
75	0x3d0c5b15	0.03426655
76	0xbdcc31e3	-0.09970453
77	0x3dfa3b02	0.12218286
78	0xbe23d808	-0.16000378
79	0x3e480d70	0.19536376
80	0x3bac70e2	0.00526248
81	0xbd09457d	-0.033513535
82	0xbc887549	-0.016657488
83	0x3dc0988a	0.094040945
84	0xbde60101	-0.1123066
85	0xbd83747b	-0.06418701
86	0xbe1288b2	-0.14309958
87	0xbe14e95e	-0.14542148
88	0xbd3e3c81	-0.04644442
89	0xbcf44f6f	-0.029823033
90	0xbd828fb6	-0.06375067
91	0x3cbeecff	0.023306368
92	0xbe101551	-0.14070632
93	0x3cb78e11	0.02240661
94	0x3dee2db2	0.116298094
95	0xbe261770	-0.16219878
96	0x3d50328b	0.05082945
97	0x3e12ca44	0.1433497
98	0x3d841cbf	0.064507954
99	0xbc955182	-0.018227343
100	0xbe261e53	-0.16222505
101	0xbdec29ce	-0.11531411
102	0x3dfabbf6	0.12242882
103	0xbe040d56	-0.12895712
104	0x3d4208cf	0.04737168
105	0xbd88212e	-0.066469535
106	0x3e03cd16	0.12871203
107	0x3c76646f	0.015038594
108	0x3d97b68b	0.07407864
109	0xbcfdc11d	-0.030975873
110	0xbce9e018	-0.028549239
111	0xbe397b49	-0.18113436
112	0xbe17dba1	-0.14829876
113	0xbe0c789a	-0.13717881
114	0xbe09599c	-0.1341309
115	0x3ca3334f	0.019921927
116	0x3be67cdd	0.007033928
117	0xbd16433d	-0.036685217
118	0xbe3d2bce	-0.18473741
119	0xbb50638a	-0.003179761
120	0x3dcac2f5	0.09900466
121	0xbcd98a66	-0.026555251
122	0x3e39ea0f	0.18155693
123	0x3df31745	0.11869673
124	0xbdcf5c4e	-0.101250276
125	0xbdd91baa	-0.106009796
126	0xbe3173d2	-0.17329338
127	0xbe23ec00	-0.16007996
128	0x3e4939ce	0.19650957
129	0xbe2080de	-0.15674159
130	0xbe1d6359	-0.1536993
131	0xbda6c5ff	-0.081432335
132	0x3e333091	0.17498995
133	0xbe0c4b60	-0.13700628
134	0xbe27eec7	-0.1639968
135	0x3e2c1eb3	0.16808586
136	0x3cd1a95c	0.025593452
137	0x3d85d43e	0.065346226
138	0xbdf5609f	-0.1198132
139	0xbe1a6c24	-0.15080315
140	0x3e3fd475	0.1873339
141	0x3db5c95b	0.08876296
142	0x3e0b53f6	0.13606247
143	0xbe2a928f	-0.1665747
144	0xbbb70862	-0.005585716
145	0xbe11465b	-0.14186995
146	0x3e71d4ce	0.23616335
147	0xbd9c6a49	-0.0763746
148	0xbc00181a	-0.007818246
149	0x3dce6915	0.100786366
150	0x3d54e843	0.051979315
151	0xbd2a861e	-0.04163181
152	0xbdca26d6	-0.098706886
153	0x3e49f8b3	0.19723777
154	0x3e84ddec	0.25950563
155	0x3db84054	0.089966446
156	0x3b5075c0	0.0031808466
157	0x3e176e60	0.14788198
158	0xbe224b79	-0.15849103
159	0x3de528d7	0.1118943
160	0x3d509ca4	0.050930634
161	0xbdfb216c	-0.12262234
162	0x3e03ce21	0.128716
163	0x3ce4cc56	0.027929466
164	0xbb5703ca	-0.0032808655
165	0x3e433fba	0.19067279
166	0xbe31c712	-0.17361096
167	0x3e1478d0	0.14499211
168	0xbe10f3a5	-0.14155443
169	0x3e42ae5e	0.19011828
170	0xbca131bd	-0.019677037
171	0x3db9ff17	0.09081858
172	0x3e28a573	0.16469364
173	0x3dfe97d9	0.124313064
174	0xbd97de78	-0.074154794
175	0x3e2022b0	0.15638232
176	0xbd9ec0ae	-0.077515945
177	0x3db2b060	0.08725047
178	0xbc299348	-0.010350056
179	0x3e083365	0.13300855
180	0x3cc3e77d	0.023914093
181	0xbdc1f028	-0.09469634
182	0x3d9f3191	0.07773126
183	0xbdfb81b3	-0.122805975
184	0xbdab5dc3	-0.08367493
185	0xbdc5332e	-0.096289024
186	0x3d5d6d65	0.054059405
187	0xbb70ed38	-0.0036762487
188	0xbdffe164	-0.12494162
189	0xbe4d3e46	-0.20043287
190	0x3e410437	0.18849264
191	0xbe06556f	-0.13118528
192	0x3e1fab06	0.15592584
193	0x3c81fb2f	0.015866844
194	0xbe0cdcce	-0.13756105
195	0x3e2852a3	0.16437773
196	0x3e4ea0ea	0.20178571
197	0xbc45b386	-0.0120667275
198	0xbd911628	-0.07084304
199	0xbddecad2	-0.10878529
200	0x3d89099a	0.066912845
201	0xbe5d2762	-0.21597055
202	0x3d8a3d34	0.06749955
203	0xbd07dcaf	-0.033169445
204	0x3d95571a	0.07292004
205	0x3d8fb71c	0.07017347
206	0xbe51abd8	-0.2047571
207	0xbca2a388	-0.019853368
208	0xbcf9bb32	-0.03048477
209	0xbd9f927e	-0.07791613
210	0xbbd10ba5	-0.006379562
211	0xbe32508a	-0.17413536
212	0x3e2c774c	0.16842383
213	0x3e302c31	0.17204358
214	0x3de3f3e8	0.11130506
215	0x3d8972e0	0.06711364
216	0xbc20f622	-0.009824308
217	0xbe061e3a	-0.13097468
218	0xbdcc61fe	-0.09979628
219	0x3de15590	0.11002648
220	0xbe1198a3	-0.14218383
221	0x3d836f87	0.064177565
222	0xbde026bb	-0.10944887
223	0xbe11ba16	-0.14231142
224	0x3e1c997b	0.15292923
225	0xbb8f1f3e	-0.004367738
226	0xbb849604	-0.0040462036
227	0x3e572e1c	0.21013683
228	0x3df6cabf	0.120503895
229	0x3d48dd66	0.049039267
230	0xbd5fc5d6	-0.05463203
231	0xbd94676d	-0.072462894
232	0x3e1a5ec2	0.1507521
233	0x3e004499	0.12526168
234	0x3df88db4	0.12136403
235	0xbdb654e0	-0.08902907
236	0xbcbf5882	-0.023357634
237	0xbe0128e1	-0.1261325
238	0x3d0a7377	0.033801522
239	0xbd2afab6	-0.041743003
240	0x3db80a20	0.08986306
241	0x3d392a66	0.04520645
242	0x3e04c90e	0.12967321
243	0xbcecb230	-0.02889356
244	0xbceb1b3c	-0.02869951
245	0x3e130ae8	0.14359629
246	0xbe14d8e6	-0.14535865
247	0x3e288152	0.16455582
248	0x3e1759cf	0.14780353
249	0xbdf6d9fa	-0.120532945
250	0xbe39dc7e	-0.18150517
251	0xbc358d6d	-0.011081082
252	0x3d3daaee	0.04630559
253	0x3dd5b2ea	0.10434516
254	0x3d7c5589	0.06160501
255	0xbe1f1082	-0.15533641

input_projection.bias f4 [64]
0	0x3dcfd6ba	0.10148378
1	0x3da4dd3e	0.08050011
2	0xbdaa64d6	-0.08320014
3	0x3d3c575e	0.045981757
4	0xbdd210b2	-0.10257091
5	0x3cafce86	0.021460783
6	0xbdebfc2b	-0.115227066
7	0xbe12a544	-0.14320856
8	0x3cd798df	0.026318012
9	0x3c8d5969	0.017254548
10	0xbc812f18	-0.015769526
11	0xbd7f4387	-0.06232026
12	0xbdd3a3a1	-0.10333944
13	0xbddfbd66	-0.10924797
14	0x3da355fb	0.07975384
15	0x3dcefdaf	0.1010698
16	0x3ab378b9	0.0013692594
17	0xbd4bc9d1	-0.049753014
18	0xbe247289	-0.16059317
19	0xbe4de212	-0.2010577
20	0x3d64347a	0.055714108
21	0xbc4db4e4	-0.012555335
22	0xbd37e40b	-0.044895213
23	0xbad745e8	-0.0016424032
24	0xbe19f7b7	-0.15035902
25	0x3df4b845	0.11949209
26	0xbd4d461f	-0.0501157
27	0xbe0be350	-0.13660932
28	0x3c7a393c	0.015272435
29	0x3dc3f06d	0.09567342
30	0xbdf0673c	-0.117384404
31	0x3d9c48d2	0.07631077
32	0xbe3e3699	-0.18575515
33	0x3dbd3efa	0.092405275
34	0xbdddacd6	-0.108239815
35	0x3e1257db	0.14291327
36	0xbc9261b3	-0.017868852
37	0x3db0192f	0.085985534
38	0xbe0ea4fa	-0.13930121
39	0x3d75cd33	0.060010146
40	0x3e2de43a	0.16981593
41	0xbdad6c3a	-0.08467908
42	0x3c462810	0.012094513
43	0xbe122b45	-0.14274319
44	0xbe44508b	-0.1917135
45	0xbdc77885	-0.09739784
46	0x3d725a08	0.05916789
47	0x3def3d4a	0.11681612
48	0x3de3c8f6	0.11122315
49	0xbe0ce117	-0.1375774
50	0x3e0e9f05	0.13927849
51	0x3ccdc44e	0.02511802
52	0x3e1ad8a1	0.151217
53	0x3c863dda	0.016386915
54	0xbac270fb	-0.0014834696
55	0x3d95e2ea	0.07318671
56	0xbe07c763	-0.13259654
57	0x3e29c1ce	0.16577837
58	0xbe12a09d	-0.14319082
59	0xbcd08c26	-0.025457453
60	0x3e322f6b	0.17400901
61	0x3d43bb7c	0.04778622
62	0x3dcb5941	0.09929133
63	0xbd3eeae0	-0.046610713

st_attention.temporal_query.weight f4 [64, 64]
0	0x3cc325ff	0.023821829
1	0xbce94b70	-0.028478354
2	0xbd3edadd	-0.046595443
3	0x3cd55c8f	0.026045112
4	0x3c90f5ed	0.017695392
5	0xbc4b1d58	-0.012397133
6	0xbd153fb1	-0.036437694
7	0xbc1f9414	-0.009739894
8	0x3c16cdf6	0.009204378
9	0x3ca73609	0.020411508
10	0xbcb93d98	-0.022612378
11	0x3c8b43a5	0.017000029
12	0xbc999bec	-0.018751107
13	0xbc31f5cb	-0.010861824
14	0x3d1cb85f	0.038261767
15	0x3cd59d7d	0.026076073
16	0xbca8a803	-0.020587927
17	0xbd713c62	-0.058895476
18	0x3d3cd232	0.046098895
19	0xbc9b31c4	-0.018944629
20	0xbb8ba970	-0.004262142
21	0xbcc252c7	-0.023721112
22	0x3c3c4aa2	0.011492403
23	0x3cc45fc3	0.023971444
24	0x3b8046ad	0.003914675
25	0xbd23c527	-0.03998294
26	0xbc36765e	-0.011136619
27	0xb91c894f	-0.00014928471
28	0xbb0e05f7	-0.0021671036
29	0x3c55f6c2	0.01305932
30	0x3ca98d37	0.02069722
31	0xba926524	-0.0011169058
32	0xbceabff7	-0.02865599
33	0xbceffbef	-0.029294936
34	0x3b51b079	0.0031996055
35	0xbd002416	-0.031284414
36	0xbc111a8f	-0.00885643
37	0x3c7e6f62	0.015529485
38	0xbc859537	-0.016306503
39	0x3d6c17ce	0.05763989
40	0x3caf76bc	0.021418922
41	0x3d2564f5	0.040379483
42	0x3d23abb6	0.03995868
43	0xbca765fc	-0.020434372
44	0x3bd5c00a	0.006523137
45	0x3c557371	0.013028012
46	0xbc70922d	-0.0146832885
47	0xbd433bdb	-0.047664504
48	0x3cabde29	0.020979958
49	0x3c64f397	0.013974092
50	0x3cdd800e	0.0270386
51	0x3d19e24b	0.037569325
52	0x3d79f5d8	0.06102547
53	0xbc99fe68	-0.018798068
54	0x3d350b39	0.044200156
55	0x3c5c3665	0.013440703
56	0x3ba78548	0.005112324
57	0x3d42fbb5	0.047603328
58	0x3cc09d38	0.023512468
59	0x3befff40	0.0073241293
60	0x37472adc	1.1871303e-05
61	0xbc2ca6f3	-0.010537851
62	0x3c92f3e2	0.017938558
63	0xbd900f06	-0.070341155
64	0x3d09b5a5	0.033620495
65	0x3ca355fe	0.019938465
66	0xbd2df20a	-0.042467155
67	0x3d1cd532	0.038289256
68	0xbbebee4b	-0.0072000376
69	0xbc27d4b2	-0.010243582
70	0xbcf68f76	-0.030097704
71	0xbd0d05ec	-0.034429476
72	0x3b307cb9	0.002692981
73	0xbcab6030	-0.02091989
74	0xbc9a1759	-0.018809961
75	0xbc3e05cd	-0.011598063
76	0xbc9fee6c	-0.019522868
77	0x3cc4cb1f	0.024022637
78	0xba16ce8c	-0.0005752824
79	0xbcf8c950	-0.03036943
80	0x3cc10afb	0.023564806
81	0xbd7bf192	-0.061509676
82	0x3b06505f	0.0020494682
83	0xbc3a7a97	-0.011381767
84	0x3c8a2ad0	0.016866118
85	0x3cf4397f	0.029812573
86	0xbcdc97ae	-0.026927795
87	0xbc9ce3d3	-0.019151604
88	0x3d052b42	0.032511957
89	0xbcc0505c	-0.023475818
90	0xbd0370ef	-0.032090124
91	0xbc6d79c9	-0.014494368
92	0x3d7dc9b3	0.061959933
93	0xbaa48286	-0.0012551106
94	0xbca8f2c7	-0.020623578
95	0x3d8207d8	0.06349152
96	0x3a3b2251	0.00071385974
97	0xbcb06d2f	-0.021536438
98	0xbd265422	-0.04060758
99	0x3c2fd010	0.010730758
100	0xbc446ed9	-0.011989319
101	0xbc63437d	-0.013871071
102	0x3d20cce8	0.039257914
103	0xbd1d43b0	-0.03839463
104	0x3a70fbd6	0.00091928
105	0xbcc7cf85	-0.024390945
106	0xbc10a5c1	-0.008828581
107	0xbc092ed7	-0.008372984
108	0x3c9ded60	0.019278228
109	0xbcecfdb1	-0.028929563
110	0x3d8e3653	0.06943955
111	0xbb644c20	-0.0034835413
112	0x3c38a141	0.011268915
113	0x3b830571	0.0039984514
114	0x3abf7dd3	0.0014609642
115	0x3cc2582b	0.023723682
116	0xbd4a94d6	-0.049458347
117	0x3d005f8e	0.031341128
118	0xbc6d3949	-0.01447899
119	0x3b9bccd7	0.0047546434
120	0xbd5e030e	-0.054202132
121	0x3d88d3e5	0.06681041
122	0xbbe6119e	-0.007021143
123	0x3d4e993c	0.050439104
124	0xbd8359b4	-0.06413594
125	0xb83a7a71	-4.4459888e-05
126	0x3d4afa60	0.049555182
127	0x3d40ea8d	0.047098685
128	0xbc9bc029	-0.019012528
129	0x3d20df7e	0.03927564
130	0x3d0a9d42	0.03384138
131	0x3955ef51	0.00020402415
132	0xbc3f4727	-0.011674679
133	0xbcfd679e	-0.030933198
134	0x3d431a9b	0.047632795
135	0x3bbbe0af	0.0057335715
136	0xbcf1765d	-0.029475385
137	0xbd0344ee	-0.03204816
138	0xbd026ecf	-0.031843957
139	0x3c37867d	0.011201498
140	0x39998562	0.00029281812
141	0x3c44d358	0.012013279
142	0x3cf474a2	0.029840771
143	0x3d18428d	0.037172843
144	0xbd51d612	-0.051229544
145	0x3d1ac17c	0.037782177
146	0xbd3fa9b7	-0.046792712
147	0xbd437dda	-0.047727443
148	0x3cc7d0c4	0.02439154
149	0x3d83b058	0.06430119
150	0x3c47112a	0.012150088
151	0xb8de710b	-0.00010606841
152	0x3bb96d4a	0.00565878
153	0x3d23d26f	0.039995607
154	0xbd4a658b	-0.049413245
155	0xbc2ae134	-0.010429669
156	0x3d888e37	0.0666775
157	0xbd6ba5b3	-0.05753107
158	0xbd519ed6	-0.05117687
159	0xbda1740a	-0.07883461
160	0x3ce6a7ed	0.028156245
161	0xbb7d205c	-0.0038624024
162	0xbd43585b	-0.047691684
163	0x3d18aedb	0.03727613
164	0x3d2c44a8	0.042057663
165	0xbcb4ce7c	-0.022071116
166	0x3c70fb81	0.014708401
167	0xbb6aed38	-0.003584696
168	0xbc936174	-0.017990805
169	0xbc838f6b	-0.016059598
170	0xbd1a98fa	-0.037743546
171	0xbd6340ac	-0.055481598
172	0x3d32e67d	0.043676842
173	0xbd2a74ec	-0.04161541
174	0x3d0183d0	0.031619847
175	0x3d0d3764	0.034476653
176	0x3d026871	0.031837884
177	0x3d92b171	0.071627505
178	0xbccd272a	-0.025043089
179	0xbd360973	-0.044442605
180	0xbd45f070	-0.048325002
181	0x3cf9dea4	0.030501671
182	0x3b079f13	0.002069418
183	0x3c984425	0.018587181
184	0xba8d2748	-0.0010769153
185	0xbd9ca02c	-0.07647738
186	0xbb5c342a	-0.0033600428
187	0xbd5913ee	-0.052997522
188	0xbc8ef772	-0.017451975
189	0x3d0fc293	0.03509767
190	0xbb8cd4ec	-0.004297843
191	0x3c820c35	0.015874961
192	0x3c8fe887	0.017566932
193	0x3a68a4c2	0.00088746485
194	0xbd0df5ee	-0.034658365
195	0xbbdae0b2	-0.006679618
196	0xbca4a4ec	-0.020098172
197	0xbce3a6ec	-0.027789555
198	0xbc1eab63	-0.009684416
199	0xbd471a63	-0.04860915
200	0x3d1040c6	0.035218023
201	0x3c219322	0.009861739
202	0xbd202231	-0.039095107
203	0x3c0457b4	0.008077551
204	0xbb08cd37	-0.002087427
205	0x3ce7fec6	0.028319728
206	0xbc89ca6d	-0.016820157
207	0xbd03a62b	-0.032140892
208	0x3bca15ec	0.006167164
209	0xbd052822	-0.032508977
210	0x3ccbffa8	0.02490218
211	0xbcd4176e	-0.025890078
212	0x3d072f9f	0.0330044
213	0x3cfd9a56	0.030957382
214	0xbcb653ec	-0.022256814
215	0xbcc5228e	-0.024064329
216	0xbba64dd5	-0.0050751963
217	0x3c6f9ddc	0.014625039
218	0xbd8cbe73	-0.06872263
219	0xbd50b131	-0.050950233
220	0xbd2cd3b0	-0.04219407
221	0x3d980295	0.074223675
222	0x3d23df8e	0.04000812
223	0x3d6dc28f	0.058046874
224	0xbabd5fa1	-0.0014448055
225	0x3bb04e37	0.0053804177
226	0xbc38cc52	-0.0112791825
227	0x3d5f608c	0.054535434
228	0x3c23f4ea	0.0100071225
229	0x3d27d681	0.04097605
230	0xbd7d2fd8	-0.061813205
231	0x3d910c0b	0.07082375
232	0xbcf9cdc9	-0.030493634
233	0x3c0abb04	0.00846744
234	0x3a61f95a	0.0008620225
235	0xbd80c7f3	-0.06288137
236	0xbcfb164b	-0.030650279
237	0x3d6d7665	0.057974238
238	0x3cc4d462	0.024027053
239	0x3d5db131	0.05412406
240	0x3d139ca5	0.03603806
241	0xbd0613c4	-0.032733694
242	0x3d60f129	0.05491749
243	0xbc429ce9	-0.011878231
244	0x3cf2ca01	0.029637339
245	0xbc11db6c	-0.008902412
246	0x3c0b1da2	0.008490952
247	0x3bead563	0.007166551
248	0x3d130580	0.035893917
249	0x3d46244e	0.048374467
250	0xbc45e415	-0.012078305
251	0x3d5df03e	0.05418419
252	0x3d711ffe	0.0588684
253	0xbcac4db7	-0.021033151
254	0x3ba31fc5	0.0049781525
255	0xbce510d9	-0.027962135

st_attention.temporal_query.bias f4 [64]
0	0x3cb8fb78	0.022580847
1	0x3c6799cb	0.014135788
2	0xbd6c9f15	-0.0577689
3	0x3dc6753d	0.0969033
4	0x3c228bb9	0.009921008
5	0xbd91c496	-0.07117574
6	0xbd6a5157	-0.057206478
7	0xbd5d04fd	-0.053959835
8	0xbd2cfff3	-0.04223628
9	0xbd534810	-0.051582396
10	0x3d97e353	0.074164055
11	0xbdb7c9e2	-0.08974053
12	0x3df84319	0.12122173
13	0x3b8b018a	0.004242127
14	0x3d8def7d	0.069304444
15	0x3ad4eb85	0.0016244507
16	0xbdfef469	-0.12448961
17	0xbdb2f07a	-0.087372735
18	0x3c866e0d	0.016409898
19	0xbd5a9d8e	-0.053372912
20	0xbdcfc0d5	-0.10144202
21	0x3d8d9134	0.06912461
22	0x3b714ee6	0.0036820709
23	0xbd746ed0	-0.05967599
24	0x3d1262d7	0.035738792
25	0xbdc6e026	-0.09710722
26	0xbd957bee	-0.07299028
27	0xbcec5471	-0.028848859
28	0x3dd4e318	0.10394877
29	0x3bd86c4b	0.0066047064
30	0x3d79059b	0.06079636
31	0x3dc33427	0.09531432
32	0xbd35808a	-0.044312038
33	0xbd999034	-0.07498208
34	0xbd573ed2	-0.052550144
35	0xbd145a95	-0.0362192
36	0xbcee0fff	-0.029060362
37	0xbd83f133	-0.064424895
38	0x3bdbf20a	0.006712203
39	0xbdf82e1f	-0.12118172
40	0xbd830766	-0.063978955
41	0x3ba2a8b3	0.004963958
42	0x3ddc2fc1	0.10751296
43	0xbd13bc7e	-0.036068432
44	0x3dcf5a25	0.101246156
45	0xbd38d107	-0.04512122
46	0x3da0f436	0.078590795
47	0xbd476557	-0.04868063
48	0xbda2eb2f	-0.07955014
49	0xbde6d094	-0.11270252
50	0xbdb97417	-0.090553455
51	0xbda4ccf2	-0.08046903
52	0x3d6234ac	0.055226013
53	0x3d8a1977	0.06743138
54	0xb9dcf8c8	-0.00042147026
55	0x3cccbd50	0.024992615
56	0xbd747ca4	-0.05968918
57	0xbcdb7b9a	-0.026792336
58	0x3d626d6e	0.05528014
59	0xba929ce0	-0.0011185668
60	0xbd716cac	-0.05894153
61	0xbce5879b	-0.028018763
62	0xbd790270	-0.06079334
63	0xbdab5b4f	-0.08367025

st_attention.temporal_key.weight f4 [64, 64]
0	0x3a2f3567	0.0006683678
1	0x3be9bde3	0.007133232
2	0xbc0b8ce4	-0.008517478
3	0xbc9fa4d5	-0.019487778
4	0xbb740bb3	-0.0037238419
5	0x3cd462fc	0.025926106
6	0xbd64bff0	-0.05584711
7	0x3d2dd390	0.04243809
8	0xbc23b9eb	-0.009993057
9	0x3d026853	0.031837773
10	0x3cfec35a	0.03109901
11	0xbcd2e706	-0.025744926
12	0x3c6a06e1	0.014283867
13	0xbcb62e2b	-0.022238811
14	0x3d0ffc7a	0.03515289
15	0xbd3a7da2	-0.04552997
16	0xbcd87b5b	-0.026426008
17	0x3d54a756	0.051917396
18	0x3c84f1bd	0.016228551
19	0xbcf7167e	-0.030162092
20	0xbc1b6057	-0.009483418
21	0xbc54e151	-0.012993173
22	0xbc65f67a	-0.014035815
23	0xbcc6f23e	-0.024285432
24	0xbd2184e7	-0.039433386
25	0xbc92f87c	-0.017940752
26	0xbcce1471	-0.025156232
27	0x3d1fefd3	0.039047074
28	0xbd484033	-0.04888935
29	0xbd2c4352	-0.04205639
30	0xbd71d0c2	-0.059036978
31	0xbd82cd4e	-0.06386815
32	0x3c4626e4	0.012094233
33	0xbc0e19ad	-0.008673114
34	0x3b94c16f	0.0045396606
35	0x3d3ba60d	0.045812655
36	0xbcc08bc1	-0.02350414
37	0x3d9e8ced	0.07741723
38	0x3bbacf76	0.005701001
39	0xbb3fa2f4	-0.0029241415
40	0x3c90e176	0.017685633
41	0xbbf3f54a	-0.007445012
42	0x3d570d64	0.052503005
43	0x3c4d1f46	0.012519663
44	0xba31ee59	-0.0006787531
45	0x3cdc3958	0.026882812
46	0x3cb88928	0.022526339
47	0xbd14507f	-0.03620958
48	0x3d1290e6	0.035782717
49	0xba79658f	-0.00095137296
50	0x3cf264e4	0.029589124
51	0xbd50d097	-0.050980177
52	0xbc714193	-0.014725107
53	0x3b798fe3	0.0038080148
54	0xbcfac87d	-0.030613178
55	0x3cbc6e17	0.023001714
56	0x3cf67e8f	0.030089645
57	0xbc68beb1	-0.014205621
58	0x3c1133ac	0.008862417
59	0x3d144f84	0.036208645
60	0x3b62186e	0.0034499425
61	0x3c6b6016	0.01436617
62	0x3c56e71b	0.013116623
63	0x3d78de1c	0.060758695
64	0x3cac5760	0.021037757
65	0xbbd96e4f	-0.0066354643
66	0xbc7e86f2	-0.015535103
67	0xbd7a67b5	-0.06113406
68	0xbd0fccea	-0.03510753
69	0xbd051444	-0.03249003
70	0x3d49639a	0.049167253
71	0x3cd537e9	0.026027637
72	0x3d05694a	0.032571115
73	0x3cb42f35	0.021995166
74	0x3c989cd9	0.018629478
75	0xbd21788d	-0.039421607
76	0xbc87482c	-0.016513906
77	0xbd314b8a	-0.04328493
78	0x3d304c1e	0.04304134
79	0x3bf42734	0.0074509624
80	0x3d20e96b	0.039285105
81	0x3cfd2b3f	0.03090441
82	0x3d2bc0b8	0.041931838
83	0xbd35a2ed	-0.04434483
84	0xbd576013	-0.052581858
85	0x3c930566	0.01794691
86	0xbdb21189	-0.08694751
87	0x3cf8c4fc	0.030367367
88	0xbbd2dbea	-0.006434907
89	0xbca774c0	-0.020441413
90	0x3d633d6e	0.055478506
91	0x39e3d618	0.00043456326
92	0xbcdaa7cc	-0.02669134
93	0xbd5444f1	-0.05182356
94	0xbc1e7e64	-0.009673689
95	0x3b95a09d	0.0045662657
96	0xbd8265a1	-0.063670404
97	0x3b6d8945	0.003624515
98	0x3c7dcb82	0.015490415
99	0xbc67e2f5	-0.014153232
100	0xbc8a5d25	-0.016890118
101	0x3ce78ac9	0.02826442
102	0x3bc28e5d	0.005937381
103	0xbcfb1569	-0.030649858
104	0xbd1aa971	-0.03775925
105	0x3d2682d2	0.040652104
106	0xbd1d48fd	-0.038399685
107	0xbc9c187c	-0.019054644
108	0x389f4501	7.594564e-05
109	0x3c0fe0b5	0.008781602
110	0xbb434025	-0.0029792872
111	0x3d45a3b2	0.048251815
112	0xbc61f337	-0.013790897
113	0xbd16d856	-0.036827408
114	0xbd049a2c	-0.032373592
115	0xbd3e48c3	-0.04645611
116	0x3c856663	0.016284173
117	0xbc931263	-0.017953103
118	0xbd4b962b	-0.04970376
119	0xbd3f5c25	-0.046718735
120	0x3cbc0a7d	0.02295422
121	0xbd4d6202	-0.050142296
122	0x3d50d100	0.050980568
123	0xbd7ff901	-0.062493328
124	0xbca82dc6	-0.020529639
125	0xbd295a33	-0.041345786
126	0xbc5b4d6f	-0.013385161
127	0xbcb13506	-0.021631729
128	0x3d4cec3f	0.05002999
129	0x3c901c8d	0.01759174
130	0xbcc440d5	-0.023956696
131	0x3b7cadae	0.003855567
132	0x3bec8683	0.0072181835
133	0x3d57ea04	0.05271341
134	0x3ce0ab3e	0.027425405
135	0x3a5831c7	0.00082471635
136	0x3d2453d2	0.040119
137	0x3b2dc225	0.0026513424
138	0xbce6ea87	-0.028188003
139	0xbca34635	-0.019930938
140	0xbd3fc0b2	-0.046814628
141	0x3ceb6ead	0.028739298
142	0x3c7e83fe	0.015534399
143	0x3d387f7c	0.045043454
144	0x3d794a4b	0.060861867
145	0xbd35c87d	-0.044380654
146	0x3caf92df	0.021432338
147	0xbc6831ce	-0.014172031
148	0x3d22938e	0.0396915
149	0x3bcacbbd	0.0061888383
150	0xbd739cb9	-0.059475634
151	0x3d7c5bae	0.06161087
152	0x3cee553a	0.029093374
153	0xbd427a72	-0.047480054
154	0x3bafd6f2	0.0053661996
155	0xbd4cb679	-0.049978707
156	0xbcdd4e0b	-0.027014753
157	0x3d1af97a	0.037835576
158	0xbce47fed	-0.027893031
159	0x3d775f38	0.060393542
160	0x3caffa56	0.021481674
161	0x3d487af8	0.048945397
162	0xbbda1eb9	-0.0066564945
163	0x3ca46502	0.020067696
164	0x3ca12da5	0.019675085
165	0xbd88a62f	-0.06672322
166	0x3d4f611a	0.050629713
167	0x3c30338c	0.010754477
168	0xbd7b41e6	-0.061342143
169	0x3d773974	0.060357526
170	0xbcc29364	-0.023751922
171	0xbc447095	-0.011989732
172	0x3c6422d8	0.013924323
173	0x3d64f176	0.055894338
174	0x3d6336b5	0.055472095
175	0xbc6090be	-0.013706384
176	0xbd87f509	-0.066385336
177	0xbd2782cc	-0.040896222
178	0xbc5bca90	-0.013414994
179	0x3c942e08	0.018088356
180	0x3c17e2f2	0.009270417
181	0x3c800a04	0.015629776
182	0x3d4202e5	0.04736604
183	0x3c8c1b2b	0.017102798
184	0xbd4f0d98	-0.050550073
185	0x3d0ca8a3	0.034340512
186	0x3c2aa868	0.010416128
187	0x3b4a7441	0.0030892047
188	0xbd2599f6	-0.04043003
189	0x3c1dbd73	0.009627688
190	0x3cae1a6d	0.021252835
191	0xbc8d4163	-0.017243093
192	0xbc64476d	-0.013933045
193	0x3ce6e5de	0.028185781
194	0x3c0c88f1	0.008577571
195	0x3c033511	0.0080082575
196	0x3d873d08	0.06603438
197	0xbd9c6a85	-0.076375045
198	0x3b095db1	0.0020960385
199	0xbd6d8046	-0.05798366
200	0x3cad4f46	0.021155965
201	0x3d8d4b65	0.06899146
202	0xbd3680d1	-0.044556443
203	0x3c7adfb4	0.015312124
204	0x3d43ff7a	0.047851063
205	0x3d464e4c	0.048414513
206	0xbd68a527	-0.056798127
207	0x3bdee841	0.006802589
208	0x3d2213cd	0.039569665
209	0x3d351bd0	0.044215977
210	0xbd59927e	-0.05311822
211	0x3d80c89b	0.062882625
212	0x3cb14e58	0.021643803
213	0xbd4791a7	-0.04872289
214	0xbc6a3fc3	-0.014297429
215	0xba190329	-0.0005836958
216	0xbcd58ebf	-0.026069043
217	0xbd177ccb	-0.036984246
218	0x3dddc4a8	0.10828525
219	0x3d47f8e1	0.048821334
220	0x3d2b470b	0.0418158
221	0xbd16a4bd	-0.0367782
222	0xbde30cf9	-0.11086459
223	0x3c8e2722	0.017352644
224	0x3c2a1e38	0.010383181
225	0xbccd5d85	-0.025069008
226	0x3d0de6a3	0.03464378
227	0x3cef8c94	0.029241838
228	0xbc15244f	-0.009102895
229	0xbce1f684	-0.027583368
230	0xbd14f3fa	-0.036365487
231	0xbd672da5	-0.056440014
232	0x3d387f38	0.0450432
233	0x3ccc9949	0.024975436
234	0xbc1421a6	-0.009041226
235	0x3c871736	0.01649056
236	0xbd5a5f61	-0.053313617
237	0x3cf84b99	0.030309485
238	0xbabb8949	-0.0014307882
239	0x3d96b9f3	0.07359686
240	0xbccf02e0	-0.025269926
241	0x3d90ec5d	0.07076333
242	0x3d3ff0e3	0.046860587
243	0xbcc48ce1	-0.023992958
244	0x3d881814	0.066452175
245	0x3cafbe80	0.021453142
246	0xbd0d7aa2	-0.03454078
247	0xbdd5fc40	-0.104485035
248	0x3d8be372	0.06830491
249	0x3ce61d28	0.028090075
250	0xbd747828	-0.059684902
251	0xbb8c4eb7	-0.0042818445
252	0x3d5568b6	0.052101813
253	0x3d4492af	0.04799145
254	0x384e706e	4.9218936e-05
255	0xbcfb0ac2	-0.030644778

st_attention.temporal_key.bias f4 [64]
0	0x335dc322	5.1633045e-08
1	0xb3910f18	-6.754834e-08
2	0x33060b33	3.1209492e-08
3	0xb30a8889	-3.2254807e-08
4	0xb31950fa	-3.5696736e-08
5	0xb19e9ef0	-4.6164743e-09
6	0xb2c5a187	-2.3007273e-08
7	0x32e97976	2.7180004e-08
8	0x34007957	1.1965072e-07
9	0x3320964a	3.738959e-08
10	0xb3a6f135	-7.773853e-08
11	0xb3ba457a	-8.673938e-08
12	0xb3222eb3	-3.7761037e-08
13	0x3227bf80	9.764221e-09
14	0xb392ab04	-6.8297624e-08
15	0x3352c104	4.9069982e-08
16	0x340d25e0	1.3145427e-07
17	0xb239195d	-1.0774184e-08
18	0xb2ab013a	-1.9907578e-08
19	0xb3213f75	-3.7543447e-08
20	0x3333ccdc	4.1863004e-08
21	0xb2f55d32	-2.8564134e-08
22	0xb3235fc8	-3.8038507e-08
23	0x329ca8dd	1.823758e-08
24	0x32b12cac	2.0625826e-08
25	0x3396f7b1	7.029974e-08
26	0x349daed9	2.9370747e-07
27	0xafa2e616	-2.9631114e-10
28	0xb35f171c	-5.194225e-08
29	0x3095ed34	1.0908594e-09
30	0xb2c0c500	-2.2441327e-08
31	0xb3123862	-3.4044554e-08
32	0x326cacd4	1.37763045e-08
33	0xb318b80c	-3.5557647e-08
34	0xb24ef5a5	-1.2046631e-08
35	0x33edba1a	1.1070024e-07
36	0xb29c3fc8	-1.8189795e-08
37	0x330bdfa8	3.2566874e-08
38	0xb503fc47	-4.9168415e-07
39	0xb255a582	-1.2435864e-08
40	0xb2398bfe	-1.0800248e-08
41	0x33655691	5.339695e-08
42	0xb28f86e1	-1.6708727e-08
43	0x3236f186	1.064871e-08
44	0xb3a901ff	-7.870039e-08
45	0x324163df	1.1256787e-08
46	0x3267948a	1.34797435e-08
47	0x3294f4e0	1.7340824e-08
48	0x32d0950b	2.4282164e-08
49	0x34dd4494	4.1214355e-07
50	0x3510e236	5.397336e-07
51	0x2fd23430	3.823586e-10
52	0xb29914ca	-1.7820998e-08
53	0x31fa9a1c	7.293478e-09
54	0xb293e346	-1.7216404e-08
55	0x342b6d08	1.5965281e-07
56	0x33f451fc	1.1377048e-07
57	0xb397126a	-7.034835e-08
58	0xb1e4007b	-6.635728e-09
59	0xb224f930	-9.602715e-09
60	0xb285aa56	-1.5560698e-08
61	0xb1b79b43	-5.343652e-09
62	0xb3a0ae61	-7.4823e-08
63	0x32a8640e	1.9603274e-08

st_attention.temporal_value.weight f4 [64, 64]
0	0x3db35044	0.08755544
1	0xbcb43429	-0.021997528
2	0xbc36364a	-0.011121342
3	0x3c8bad86	0.017050516
4	0x3dbf84aa	0.093514755
5	0x3c01cd43	0.007922473
6	0x3d18a7a3	0.037269246
7	0xbd0b46f3	-0.03400321
8	0xbd30aef2	-0.04313559
9	0xbd2d6410	-0.042331755
10	0xbbfa7828	-0.0076437183
11	0xbd785282	-0.06062556
12	0xbd2451c0	-0.040117025
13	0x3c563079	0.01307308
14	0x3ce9e709	0.028552549
15	0xbda93027	-0.082611375
16	0xbc1e7484	-0.009671334
17	0x3d23926e	0.039934568
18	0xbdc5cdeb	-0.09658416
19	0xbd83c49b	-0.06433984
20	0xbde7d4a5	-0.113198556
21	0xbd804d03	-0.06264689
22	0xbc93308d	-0.017967487
23	0xbdd0d476	-0.10196774
24	0x3c884ce9	0.016638236
25	0x3db444d7	0.08802193
26	0x3d289bfc	0.041164383
27	0x3db79d8b	0.08965596
28	0xbd0fbb6b	-0.035090845
29	0x3d8b5b75	0.068045534
30	0x3dba3733	0.0909256
31	0xbc949733	-0.018138504
32	0xbdbd430e	-0.09241305
33	0x3d5fa395	0.054599363
34	0x3df94cac	0.12172827
35	0xbdb5acb1	-0.08870829
36	0xbda12c90	-0.07869828
37	0x3e0dcb32	0.13847044
38	0xbd02f600	-0.031972885
39	0x3d6b7d0d	0.057492305
40	0xbd3cfc79	-0.046139214
41	0xbe06b643	-0.13155465
42	0x3db655c3	0.089030765
43	0x3d9a81b3	0.075442694
44	0xbd5ab572	-0.053395696
45	0xbdd95da7	-0.10613566
46	0x3c43eeab	0.011958758
47	0x3d3d7b85	0.046260376
48	0x3d89bf2c	0.06725916
49	0xbd06a7cd	-0.03287487
50	0xbdabc08a	-0.08386333
51	0xbd356b57	-0.04429182
52	0x3cc4ec5e	0.02403849
53	0x3d8ddca2	0.06926848
54	0x3d3f525a	0.046709396
55	0xbd3fb778	-0.04680583
56	0xbd17a00b	-0.037017863
57	0x3dda0410	0.10645306
58	0xbca9beda	-0.020720888
59	0xbc12bbc5	-0.008955901
60	0xbd3a2d8c	-0.045453593
61	0x3c8ebb14	0.01742319
62	0xbd33b72b	-0.043875854
63	0xbdc26f49	-0.09493882
64	0xbc4b23ec	-0.012398701
65	0x3dc35b3b	0.09538885
66	0xbd1c4600	-0.038152695
67	0x3d25a3e7	0.040439513
68	0xbcf4aac4	-0.029866584
69	0x3dcc9dd5	0.099910416
70	0x3dbb9082	0.09158422
71	0x3dc0d7e8	0.09416181
72	0x3de60aab	0.112325035
73	0x3d0fd3e3	0.03511418
74	0xbdb5cd94	-0.088771015
75	0xbc32a5a8	-0.010903753
76	0xbd54c116	-0.051941954
77	0x3de93be3	0.113883756
78	0x3d039d41	0.03213239
79	0x3d52c768	0.0514597
80	0x3a2e652e	0.000665265
81	0xbcdd6cef	-0.027029483
82	0x3d044191	0.03228909
83	0x3d9ea96b	0.07747158
84	0x3dcec110	0.100954175
85	0xbdb7d99c	-0.089770526
86	0x3d32f914	0.04369457
87	0x3c3a0057	0.01135262
88	0xbdb2d383	-0.08731749
89	0xbdc36d7f	-0.09542369
90	0x3d8fa13b	0.07013174
91	0xbd0062f1	-0.031344358
92	0x3c4546b4	0.012040783
93	0xbb638e17	-0.0034722143
94	0xbb807365	-0.003920006
95	0xbd8cf5cc	-0.068828195
96	0x3df598ad	0.11992011
97	0xbbd26546	-0.006420764
98	0xbd950acf	-0.07277452
99	0x3d93a721	0.07209612
100	0x3c8cca32	0.017186258
101	0xbdc8ac9f	-0.0979855
102	0xbc8fd6ea	-0.017558534
103	0xbdfc604f	-0.12323057
104	0x3bb15196	0.005411337
105	0xbdebb23e	-0.115086064
106	0xbdd05654	-0.10172716
107	0x3c276596	0.010217091
108	0x3dadc968	0.08485681
109	0xbd48ebd4	-0.04905303
110	0x3d903791	0.070418485
111	0xbd9b8914	-0.07594505
112	0x3da7450a	0.08167465
113	0x3d7bc2c3	0.061465036
114	0xbcb22a15	-0.021748582
115	0xbc8a632c	-0.016892992
116	0xbcf5b054	-0.029991306
117	0xbe0041b9	-0.12525071
118	0xbd1cb368	-0.038257033
119	0x3d897953	0.06712594
120	0xbc9cdc7b	-0.019148102
121	0x3d8ee0fc	0.06976506
122	0xbdebf33b	-0.11521002
123	0x3ce0a90e	0.027424362
124	0xbd57df7e	-0.052703373
125	0x3cac0f65	0.021003434
126	0x3d9b2daf	0.07577073
127	0x3d9cd393	0.07657542
128	0x3de7df80	0.11321926
129	0x3d256d43	0.040387403
130	0x3db88d0a	0.09011276
131	0xbd4fef98	-0.050765604
132	0xbdd29248	-0.10281807
133	0xbcd6f998	-0.026242062
134	0x3d7be56a	0.061498083
135	0x3c824cfa	0.015905846
136	0xbde3b075	-0.11117641
137	0x3cede148	0.029038087
138	0x3bbc6808	0.005749706
139	0x3d3e4025	0.04644789
140	0x3ca008c3	0.019535428
141	0x3d9cc8c6	0.07655482
142	0x3de0ba99	0.10973091
143	0xbce52d7e	-0.027975794
144	0x3b4ad172	0.0030947593
145	0xbd224236	-0.039613925
146	0xbdbceee5	-0.09225253
147	0x3d42afc8	0.04753092
148	0x3db2a42c	0.087227196
149	0xbdbb7afb	-0.09154316
150	0x3d863c1d	0.065544344
151	0xbbd4e83c	-0.006497411
152	0x3d14902b	0.0362703
153	0x3dd33e59	0.10314626
154	0xbdbb25d0	-0.091380715
155	0xbca7969d	-0.02045756
156	0xbd83681b	-0.06416341
157	0xbc6988a4	-0.014253769
158	0xbd170953	-0.036874127
159	0x3df1151e	0.11771606
160	0xbda38f59	-0.07986326
161	0xbd407380	-0.04698515
162	0xbc292efe	-0.010326145
163	0x3d8061bc	0.06268641
164	0x37cde668	2.4545196e-05
165	0x3d929fff	0.07159423
166	0xba42a518	-0.00074251136
167	0x3db48ada	0.08815546
168	0x3dd99ca3	0.10625579
169	0xbc79e14d	-0.01525147
170	0xbcfba253	-0.03071705
171	0x3db7f5ca	0.089824274
172	0xbcfe17b3	-0.03101716
173	0xbbc07d8e	-0.0058743423
174	0xbd9445a5	-0.07239846
175	0xbc72f292	-0.014828341
176	0xbddaa190	-0.10675347
177	0xba2fd771	-0.00067078235
178	0x3e0401f9	0.12891378
179	0x3d096f4a	0.0335534
180	0x3beb2884	0.0071764607
181	0x3d905d5a	0.070490554
182	0x3c011cf8	0.007880442
183	0x3cc02527	0.023455216
184	0x3d99b490	0.07505143
185	0x3d780160	0.060548186
186	0xbda6eab5	-0.081502356
187	0x3e0a2814	0.13491851
188	0xbd8efcb5	-0.06981794
189	0xbd9600e9	-0.07324392
190	0x3d097143	0.03355528
191	0xbcc30d84	-0.023810156
192	0xbd8b7ad6	-0.068105385
193	0x3d8815f2	0.06644811
194	0x3d865b0a	0.06560333
195	0x3d49008f	0.0490728
196	0xbd9df9fd	-0.07713697
197	0xbe073db6	-0.13207135
198	0xbc9173bc	-0.017755382
199	0x3d19d3e9	0.03755561
200	0x3d595118	0.053055853
201	0xbdd158f0	-0.102220416
202	0xbbcca496	-0.006245206
203	0xbd99ab3b	-0.07503363
204	0x3c57bab0	0.013167068
205	0x3da1d464	0.079018384
206	0xbd539135	-0.051652152
207	0x3d915a8f	0.07097351
208	0x3d9a8aa2	0.07545973
209	0x3d14f6d7	0.036368217
210	0x3da04e47	0.0782743
211	0x3d860a21	0.06544901
212	0xbd6f7581	-0.05846167
213	0x3d21008f	0.039307173
214	0x3baaee33	0.005216384
215	0x3da02721	0.07819963
216	0xbd04bbc6	-0.032405637
217	0xbd65be48	-0.05608967
218	0x3d712234	0.05887051
219	0x3d9535f1	0.07285679
220	0x3def1da1	0.11675573
221	0x3d42fc90	0.047604144
222	0x3b8d842a	0.0043187337
223	0x3de14526	0.10999517
224	0xba05962f	-0.00050959265
225	0x3d0bccc3	0.034130823
226	0xbd84db54	-0.06487146
227	0xbdee3617	-0.116314106
228	0x3d8a744b	0.067604624
229	0x3ca7ece7	0.020498706
230	0x3d3b476f	0.04572242
231	0xbd91d96a	-0.071215466
232	0xbde76437	-0.11298411
233	0x3d39d4e2	0.045369036
234	0xbdd17038	-0.10226482
235	0xbdac30ab	-0.0840772
236	0x3bf78d84	0.007554712
237	0x3de841b3	0.11340656
238	0x3ce391d4	0.027779497
239	0x3ce9519d	0.028481299
240	0xbc95b96a	-0.018276889
241	0xbd564552	-0.052312203
242	0x3cc39fb4	0.023879863
243	0xbd6b79f6	-0.057489358
244	0xbd8b930e	-0.06815158
245	0x3c783ce2	0.015151234
246	0xbd99a44d	-0.07502041
247	0xbcbaa083	-0.022781616
248	0xbc74e5cb	-0.014947365
249	0x3d3b8393	0.045779776
250	0xbdb3a4e4	-0.08771685
251	0x3d906f9b	0.07052537
252	0x3b6d2b26	0.0036189049
253	0xbd2c4eff	-0.042067524
254	0xbcd4d1fd	-0.025979036
255	0x3dc96522	0.09833743

st_attention.temporal_value.bias f4 [64]
0	0xbceaf68b	-0.028682014
1	0x3d20ba50	0.03924018
2	0xbd96a4d0	-0.07355654
3	0x3cfb18ce	0.030651476
4	0x3b35e6a6	0.0027755885
5	0xbd8ac6ef	-0.06776225
6	0x3db98b54	0.09059778
7	0x3ccd5aa0	0.025067627
8	0xbd82bf29	-0.06384117
9	0xbd38c351	-0.045108143
10	0xbd0410d4	-0.03224261
11	0x3d054f98	0.03254661
12	0x3d80c16a	0.06286891
13	0x3b794da3	0.003804066
14	0x3cdab3bd	0.026697034
15	0xbd5d8b6f	-0.054088052
16	0xbbb869a1	-0.0056278263
17	0x3db9526e	0.09048925
18	0x3e07ee5e	0.13274524
19	0x3c90aef0	0.017661542
20	0x3cb7888e	0.022403982
21	0x3c9bc763	0.019015973
22	0xbbd7b287	-0.0065825614
23	0xbdaa371e	-0.08311294
24	0x3d09f27f	0.033678528
25	0xbdbd7958	-0.0925166
26	0xbd96a12a	-0.07354958
27	0x3dca2a01	0.09871293
28	0xbd749bf4	-0.05971904
29	0xbdbf76d7	-0.09348839
30	0x3dd8fc29	0.10594971
31	0xbc22aacd	-0.009928417
32	0xbd7008f2	-0.05860228
33	0x3d2ccfdf	0.04219043
34	0x3dc04c56	0.0938956
35	0xbc1c9aac	-0.009558361
36	0x3d0522d9	0.032503936
37	0x3dafaad0	0.08577502
38	0x3cda23fb	0.026628485
39	0x3cfb1981	0.03065181
40	0xbd719619	-0.058981035
41	0x3dc294f3	0.09501066
42	0xbc612a06	-0.013742929
43	0xbdbb1534	-0.091349036
44	0xbd57051a	-0.0524951
45	0xbc7dfc29	-0.015502014
46	0xbda2dac2	-0.07951881
47	0x3dc2b51e	0.095072016
48	0x3c7d03e3	0.015442821
49	0xbcca5ea2	-0.024703328
50	0x3ce13320	0.027490199
51	0xbd8a1775	-0.06742755
52	0xbde9d434	-0.11417428
53	0x3dd5530f	0.10416233
54	0xbdc73c8f	-0.097283475
55	0xbdcb20e3	-0.09918382
56	0xbd0640f7	-0.0327768
57	0x3c1cb0df	0.009563654
58	0x3d8811b0	0.066439986
59	0x3d69a36c	0.057040617
60	0xbd0b0749	-0.033942495
61	0x3c8811cd	0.01661005
62	0x3c9c8b80	0.019109488
63	0x3db66331	0.08905638

st_attention.spatial_query.weight f4 [64, 64]
0	0x3d5a40dc	0.05328451
1	0xbbf34e85	-0.0074251317
2	0x3c225110	0.009907022
3	0x3c1fcbeb	0.009753208
4	0xbc3dc0ea	-0.011581639
5	0xbd5d1a53	-0.053980183
6	0x3dc032e2	0.09384705
7	0x3d7402a6	0.05957284
8	0x3d37f176	0.04490801
9	0xbd4f841b	-0.050663095
10	0x3d3a4c7b	0.045483094
11	0xbcb884bc	-0.02252423
12	0x3c349f56	0.011024317
13	0x3c96a6ed	0.018390143
14	0xbcd5014f	-0.0260016
15	0x3bf778bf	0.007552236
16	0xbb677188	-0.0035315473
17	0xbd1048cb	-0.03522567
18	0xbd026ba7	-0.031840947
19	0x3c27d57b	0.010243769
20	0xbc24c33b	-0.010056312
21	0x3caea618	0.021319434
22	0x3d20386e	0.039116316
23	0xbcaa5a18	-0.020794913
24	0x3d2be001	0.041961674
25	0xbcd494aa	-0.025949795
26	0xbd2246a1	-0.03961814
27	0xbd7f3ce2	-0.06231392
28	0x3ce427ff	0.027851103
29	0xbc6536b1	-0.01399009
30	0x3d76c4c5	0.060246248
31	0xbcc4a0fd	-0.024002546
32	0xbd79247a	-0.060825802
33	0x3d1b9edf	0.03799331
34	0xbd2a8042	-0.041626222
35	0x3d2be219	0.04196367
36	0xbca817bf	-0.020519136
37	0x3cceee51	0.025260122
38	0xbc9438bc	-0.01809346
39	0x3d3d05a2	0.04614795
40	0xbc35da01	-0.011099339
41	0xbd158105	-0.036499996
42	0xbc7b3e6e	-0.015334709
43	0xbbda71fb	-0.0066664196
44	0xbc7b737c	-0.015347358
45	0x3d1ce199	0.038301084
46	0x3c873c7b	0.016508332
47	0xbd936450	-0.071968675
48	0x3b8121e0	0.003940806
49	0x3d1cb61e	0.038259618
50	0xbc63f668	-0.013913728
51	0xbd2f6b3c	-0.042826876
52	0x3b39be55	0.0028342206
53	0x3c91face	0.017819788
54	0xbd9724c9	-0.07380063
55	0xbc704032	-0.014663743
56	0x3d3fa482	0.046787746
57	0xbb61a6da	-0.0034431727
58	0xbd0aaa62	-0.033853896
59	0xbd907905	-0.07054333
60	0x3c934506	0.017977249
61	0xbcf4e48c	-0.029894136
62	0x3cd39ab3	0.025830602
63	0x3d251abf	0.04030871
64	0xbd2d84d9	-0.04236302
65	0xbc82b809	-0.015956895
66	0xbd41ceba	-0.04731629
67	0x3d13632e	0.035983257
68	0x3cead056	0.028663795
69	0x3c929fff	0.017898558
70	0x3d12db3e	0.035853617
71	0xbcd5bc94	-0.026090898
72	0x3c8780e0	0.016540945
73	0xbcea1f3f	-0.028579352
74	0xbcd1c78c	-0.025607847
75	0x3d4f729d	0.050646413
76	0xbce96790	-0.028491765
77	0x3c156228	0.009117641
78	0xbce32529	-0.02772768
79	0xb9b9e461	-0.00035456105
80	0xbd13a458	-0.036045402
81	0x3ce9c71a	0.028537322
82	0xba1fe63f	-0.0006099678
83	0x3d6cf176	0.057847463
84	0x3b877e09	0.0041348976
85	0xbc96ecd9	-0.018423485
86	0x3d0adfbf	0.033904787
87	0x3c86ee5d	0.016471082
88	0xbc04ec74	-0.008113015
89	0xbd502737	-0.05081865
90	0xbd1f9873	-0.038963746
91	0x3c85984e	0.016307976
92	0x3d19e78b	0.037574332
93	0xbb848952	-0.00404469
94	0xbd1a1403	-0.03761674
95	0xbc97226d	-0.018449033
96	0x3d54a6d4	0.051916912
97	0xbcc0e0f4	-0.023544766
98	0xbd2b55f2	-0.04183001
99	0xbc34ba92	-0.01103081
100	0x3c8fe3cb	0.017564675
101	0x3be33163	0.0069333776
102	0x3d473b37	0.048640456
103	0xbc0d7ae5	-0.008635257
104	0xbd32d398	-0.043658823
105	0xbb7e6179	-0.0038815422
106	0x3d62f50f	0.055409487
107	0xbb160572	-0.002289143
108	0xbc49498c	-0.012285601
109	0xbcfbd986	-0.030743372
110	0x3c6caa4a	0.014444897
111	0x3c668891	0.014070646
112	0x3d8efb39	0.06981511
113	0xbcdeec26	-0.027212214
114	0xbd8bef0e	-0.068327054
115	0x3b5f8faa	0.003411273
116	0x3c58804d	0.013214183
117	0x3cd72123	0.026260918
118	0x3d63caa7	0.055613186
119	0xbb745023	-0.003727921
120	0x3b9b676e	0.0047425544
121	0x3cf0583f	0.029338954
122	0xbbebfa69	-0.007201482
123	0x3cd71b70	0.0262582
124	0x3d1515a0	0.036397576
125	0x3d2a9a7f	0.041651245
126	0xbd20d3b6	-0.039264403
127	0x3cfdb822	0.03097159
128	0x3cc6299c	0.024189763
129	0x3c667afe	0.01406741
130	0xbd28c9ac	-0.041207954
131	0x3cdf573b	0.027263274
132	0xbd05253a	-0.032506205
133	0xbcb3366a	-0.021876533
134	0xbcdd5c7d	-0.02702164
135	0x3c6b4f3e	0.0143621545
136	0xbd117b3d	-0.03551792
137	0x3c7bba30	0.015364215
138	0x3c1fe8bf	0.009760081
139	0x3d165311	0.036700312
140	0xbc867e02	-0.016417507
141	0x3c216b97	0.009852312
142	0x3ccb16a5	0.024791071
143	0xbd627569	-0.055287752
144	0x3d0becb2	0.034161277
145	0x3c196605	0.009362702
146	0x3d83d410	0.06436932
147	0xbd398be7	-0.045299437
148	0x3aff4d12	0.0019477925
149	0x3ba6b1a6	0.0050870953
150	0x3baf87a6	0.0053567467
151	0x3d5291cf	0.051408585
152	0xbaf60f9c	-0.0018772963
153	0x3d9d2636	0.07673304
154	0x3cca3537	0.024683578
155	0xbc0bd869	-0.008535483
156	0xbb785798	-0.0037894007
157	0xbd54e289	-0.051973853
158	0xbbf748d0	-0.0075465217
159	0x3dbac3c8	0.091193736
160	0xbd4512c9	-0.048113618
161	0xbc28e77c	-0.010309096
162	0x3c7e8e15	0.015536805
163	0x3cf7b325	0.03023679
164	0xbc0d3d9a	-0.008620644
165	0x3d07380b	0.03301243
166	0xbd944d32	-0.07241286
167	0x3d893841	0.06700183
168	0xbd2af36b	-0.041736048
169	0xbd95f701	-0.07322503
170	0x3ccab7e8	0.024745896
171	0xbbe5e904	-0.007016303
172	0xbc30efde	-0.010799376
173	0x3db0e962	0.08638264
174	0x3c51ccf9	0.012805217
175	0xbd64ae06	-0.055830024
176	0x3cdeeda7	0.02721293
177	0xbc9a6878	-0.018848643
178	0x3c778920	0.015108377
179	0xbb3e3da6	-0.0029028445
180	0xbc93d87e	-0.018047567
181	0x3d620722	0.055182584
182	0xbd7c1e8c	-0.06155257
183	0xbc4c6d59	-0.012477242
184	0x3cf0fd36	0.029417615
185	0x3b56cf8c	0.0032777516
186	0x3cff1d7e	0.031141993
187	0x3bbe6f39	0.0058115986
188	0xbd84b0f5	-0.064790644
189	0xbd8057b7	-0.0626673
190	0x3c719d5c	0.01474699
191	0x3d1bd87a	0.038048245
192	0x3c577e4e	0.013152672
193	0x3c95c6e3	0.018283313
194	0xbc4589dc	-0.012056794
195	0x3d0ea8fe	0.034829132
196	0xbbe06197	-0.006847571
197	0xbd0b2572	-0.033971258
198	0xbbb26c47	-0.0054450366
199	0xbd184e3f	-0.037183996
200	0xbd1c05e6	-0.038091563
201	0xbca81db9	-0.020521985
202	0xbccbc967	-0.02487631
203	0xbc50a7ba	-0.012735302
204	0x3c87cd47	0.016577376
205	0xbd6c7361	-0.05772722
206	0xbd80947e	-0.06278323
207	0x3d947b5d	0.07250092
208	0xbd5661ee	-0.052339487
209	0xbc2f4871	-0.010698424
210	0xbcf0198f	-0.029309062
211	0xbd3d36ec	-0.046194956
212	0xbcaf260a	-0.021380443
213	0x3d665a3f	0.05623841
214	0x3c0920dc	0.008369651
215	0x3c7ce02c	0.015434306
216	0x3c820cd1	0.015875252
217	0xbd5c442a	-0.053775944
218	0xbd533826	-0.05156722
219	0x3c1f7953	0.009733516
220	0x3d3196a5	0.043356556
221	0x3d81bd00	0.06334877
222	0xbd3d88fa	-0.04627321
223	0xbd80d88d	-0.06291304
224	0xbd34c094	-0.04412897
225	0xbce06ea9	-0.027396517
226	0x3d4a51ec	0.049394533
227	0xbdaded1b	-0.0849249
228	0x3ca1a0a8	0.019729927
229	0x3c2f46d1	0.010698036
230	0xbd2f93c5	-0.042865533
231	0x3d100ce5	0.035168547
232	0xbd5b6180	-0.05355978
233	0x3d01b6f7	0.03166863
234	0xbc886b7f	-0.01665282
235	0x3d0540e8	0.032532603
236	0xbd2eedf1	-0.042707387
237	0xbce5459d	-0.027987296
238	0xbca821eb	-0.020523986
239	0x3cc7b6e4	0.024379201
240	0xbd897101	-0.06711007
241	0xbd0ce2a7	-0.03439584
242	0xbc387dce	-0.011260463
243	0x3d846540	0.064646244
244	0xbd53a139	-0.051667426
245	0x3d28a2f8	0.041171044
246	0xbc5fb079	-0.013652914
247	0xbc9955e1	-0.018717708
248	0x3c04b985	0.008100872
249	0x3af84c83	0.0018943701
250	0x3c0037e5	0.007825826
251	0x3cab895d	0.020939523
252	0xbd82a8df	-0.06379866
253	0x3d8d4b89	0.06899173
254	0x3c6663e9	0.014061906
255	0xbd2b883c	-0.04187797

st_attention.spatial_query.bias f4 [64]
0	0xbd9e0446	-0.07715659
1	0x3ca9d5a0	0.020731747
2	0xbce8f385	-0.028436432
3	0xbda45660	-0.08024287
4	0xbdcdded7	-0.10052269
5	0x3da4387a	0.080185845
6	0x3d2ed45c	0.04268299
7	0xbd9415a5	-0.07230691
8	0x3dafab6a	0.085776165
9	0x3d5734e4	0.052540675
10	0xbc96e2e7	-0.018418742
11	0xbd0cd51f	-0.034382936
12	0x3d8a8c26	0.067650124
13	0xbbb3ee17	-0.005491029
14	0x3d28c9e2	0.041208155
15	0x3c2838ca	0.010267446
16	0x3d44925f	0.047991153
17	0xbcd48174	-0.025940634
18	0x3bbe90a6	0.0058155833
19	0x3a2c46ef	0.0006571849
20	0x3d21754b	0.0394185
21	0xbd768a78	-0.060190648
22	0xbc88a9f8	-0.01668261
23	0xbd4a34a5	-0.049366612
24	0xbb9e7213	-0.004835376
25	0xbd2f59b4	-0.042810157
26	0xbd3b67f7	-0.045753445
27	0xbd4d3069	-0.050094996
28	0x3d097533	0.033559036
29	0xbd740c2d	-0.059581924
30	0xbc120462	-0.008912178
31	0xbca11ae4	-0.019666143
32	0xbdbe1ffd	-0.09283445
33	0xbb73a174	-0.003717509
34	0x3d6f946f	0.058491167
35	0xbc663174	-0.0140498765
36	0x3d8a5ab8	0.067555845
37	0x3d1deaa7	0.03855386
38	0xbd57c782	-0.0526805
39	0x3dd1acb0	0.10238016
40	0xbc6ea34c	-0.0145653
41	0xbcb6a323	-0.022294587
42	0xbca40ecd	-0.020026589
43	0xbd52adee	-0.051435404
44	0xbc4e1bc7	-0.012579865
45	0xbca544a0	-0.020174325
46	0x3b186fcd	0.0023259998
47	0xbc086286	-0.008324271
48	0x3d7569c2	0.05991531
49	0x3d34618b	0.044038337
50	0xbd5abd90	-0.053403437
51	0x3dc3e8a5	0.09565858
52	0xbd423e48	-0.047422677
53	0xbd00ec85	-0.031475563
54	0x3d88fcbb	0.066888295
55	0x3c6a6173	0.01430546
56	0xbd4c00c3	-0.049805414
57	0xbd540d1b	-0.05177031
58	0xbc35db7d	-0.011099693
59	0xbd8f2c0e	-0.06990825
60	0x3cbdfe05	0.023192415
61	0xbccbe10a	-0.02488758
62	0xbd296a06	-0.041360877
63	0x3d8560cd	0.06512604

st_attention.spatial_key.weight f4 [64, 64]
0	0xbc22acce	-0.009928895
1	0x3d74d565	0.05977382
2	0x3d7a160d	0.061056186
3	0xb98ad478	-0.00026479713
4	0x3a1a912c	0.0005896266
5	0x3d13904a	0.036026277
6	0x3d52f5ba	0.051503874
7	0xbcfffa4d	-0.031247282
8	0x3c9af453	0.018915331
9	0x3d73f1b8	0.059556693
10	0x3c5e8976	0.013582578
11	0x3d3858ce	0.045006566
12	0x3d0473db	0.03233705
13	0xbd61503c	-0.055008158
14	0x3d1e603b	0.03866599
15	0x3d6a97ac	0.05727355
16	0xbb88ab1a	-0.0041707875
17	0xbc5eb2fa	-0.013592476
18	0x3d036596	0.0320793
19	0x3cf3b254	0.02974812
20	0x3ccc23cf	0.024919419
21	0xbb0be8e8	-0.002134854
22	0xbd2fc1de	-0.042909496
23	0x3baf2ece	0.0053461557
24	0x3d17a152	0.03701908
25	0x3d143823	0.03618635
26	0xbbd7d1c8	-0.006586287
27	0xbd181145	-0.037125845
28	0x3d46d646	0.04854419
29	0x3cc3d637	0.023905857
30	0xbcae99fc	-0.02131366
31	0xbd2f5322	-0.04280389
32	0xbcb15f40	-0.021651864
33	0xbc016cd9	-0.007899486
34	0x3d2d9c60	0.04238546
35	0xbd0edf52	-0.034880944
36	0xbc542e4f	-0.012950494
37	0xbd8e1ca4	-0.069390565
38	0xbd5d7651	-0.054067913
39	0xbd20970a	-0.039206542
40	0x3b7786b6	0.0037769503
41	0x3c57bbd8	0.013167344
42	0xbcffd6f1	-0.031230422
43	0x3ab998c5	0.0014159909
44	0x3d3d6975	0.04624315
45	0xbca39f0e	-0.019973304
46	0x3c4e02b7	0.012573889
47	0xbd2c53bc	-0.042072043
48	0xbc9bf023	-0.019035405
49	0x3cd3c0ff	0.025848864
50	0xbda67b5f	-0.08129
51	0x3b7a9420	0.0038235262
52	0xbd1a80ed	-0.03772061
53	0x3ce167c5	0.027515301
54	0x3d409261	0.047014598
55	0xbce2a460	-0.02766627
56	0xbd430a6f	-0.047617372
57	0xbd185bfc	-0.037197098
58	0xbd3c41dc	-0.045961246
59	0xbcc47adf	-0.02398437
60	0x3d6d65f7	0.05795857
61	0xbd98eda5	-0.07467202
62	0xbd1a61f6	-0.03769108
63	0x3d213c21	0.039363984
64	0xbcc56816	-0.024097484
65	0xbc293fb4	-0.010330129
66	0x3d808e45	0.06277136
67	0x3d3ad8d0	0.045616925
68	0xbabc57fe	-0.0014369485
69	0xbcbb3267	-0.022851182
70	0xbd37de22	-0.044889577
71	0x3cf482f6	0.029847603
72	0x3cd6d328	0.026223734
73	0x3cb3af84	0.021934278
74	0xbc488602	-0.012238981
75	0xbcd52393	-0.02601794
76	0xba9cc2b0	-0.0011959877
77	0x3d2c750b	0.04210381
78	0xbcfe624e	-0.031052735
79	0xbcf9a99d	-0.030476386
80	0xbd688bf5	-0.0567741
81	0xbd051c03	-0.032497417
82	0x3c972adb	0.018453052
83	0x3c966203	0.018357283
84	0x3ce6bdb3	0.028166628
85	0xbbe5f83a	-0.0070181163
86	0x3cb34651	0.021884115
87	0xbcae4b11	-0.021276029
88	0x3c62e0cf	0.013847544
89	0xbce890d5	-0.028389374
90	0xbd939bf9	-0.07207484
91	0xbd64bf5b	-0.055846553
92	0x3cb3c9ed	0.021946872
93	0xbca8953c	-0.020578973
94	0x39c9ee68	0.00038515334
95	0xbd183ace	-0.037165456
96	0xbd29fb13	-0.04149921
97	0xbd64d245	-0.05586459
98	0x3c7191b2	0.014744209
99	0x3cd96a3c	0.026539914
100	0x3c085c59	0.008322799
101	0xbd5c1dca	-0.053739347
102	0x3d68461f	0.056707498
103	0xbd279b26	-0.040919445
104	0xbd32c323	-0.043643128
105	0x3d895624	0.06705883
106	0x3c4d1d94	0.012519259
107	0x3cf0fb8c	0.029416822
108	0xbb5ca4dc	-0.00336676
109	0x3cb3114a	0.02185883
110	0x3ca10ee8	0.019660428
111	0xbc5b814b	-0.013397525
112	0xbd454f26	-0.048171185
113	0x3cc57076	0.024101477
114	0x3d25b9d0	0.040460408
115	0x3cf35fea	0.029708821
116	0xbba217af	-0.004946671
117	0x3d4bce92	0.049757548
118	0xbcc28d43	-0.023749
119	0x3b146065	0.0022640463
120	0x3d8fb3bc	0.070167035
121	0x3cb54d5b	0.022131613
122	0x3c56ab78	0.013102405
123	0xbd806856	-0.062699005
124	0x3c621084	0.013797883
125	0xbb8f48ae	-0.0043726778
126	0x3ba67c11	0.005080708
127	0x3c5ad65e	0.013356773
128	0xbc8a353e	-0.016871091
129	0xbd712c17	-0.058879938
130	0x3d4ee9b5	0.05051585
131	0xbc8bcfc7	-0.01706685
132	0xbd1da7a7	-0.038489964
133	0x3d87d8a5	0.066331185
134	0x3d946dca	0.07247503
135	0xbcf6531b	-0.030068925
136	0x3d407fc9	0.046996865
137	0x3ce4b2dd	0.02791732
138	0xbc1fe5e2	-0.009759398
139	0x3c31c32b	0.010849754
140	0x3cd5a4af	0.026079504
141	0xbd0c26ff	-0.034216877
142	0x3c411c27	0.011786497
143	0x3c4c4aff	0.012469052
144	0x3d09702b	0.033554237
145	0x3c5cc258	0.01347407
146	0xbd4b7ef9	-0.049681637
147	0x3c58fbb4	0.013243604
148	0x3cecc15a	0.028900791
149	0x3c0c9789	0.008581051
150	0xbc645111	-0.013935343
151	0x3b8d3c2d	0.004310152
152	0xbba66c69	-0.0050788415
153	0xbc9de556	-0.019274395
154	0x3cabeeac	0.020987831
155	0x3d27be73	0.04095311
156	0xbcc5c5cd	-0.02414217
157	0xbd88f6d5	-0.066877045
158	0x3c6b09b2	0.014345573
159	0x3d63c0d5	0.05560382
160	0xbb1872b9	-0.002326174
161	0x3d1ba49a	0.037998773
162	0x3d6442f6	0.05572792
163	0xbd0c598e	-0.034265094
164	0xbc2c3311	-0.010510222
165	0x3d787169	0.06065503
166	0xbd3015c9	-0.042989526
167	0xbd819941	-0.06328059
168	0xbd4eb1a6	-0.050462388
169	0x3d02608c	0.031830356
170	0xbd1cb1a9	-0.038255367
171	0x3cf2d89a	0.0296443
172	0xbc1e30e1	-0.009655208
173	0x3d286ba7	0.04111829
174	0xbb8f89b9	-0.0043804315
175	0xbd21f201	-0.039537434
176	0x3b91c075	0.0044479915
177	0xbc87578d	-0.01652124
178	0x3c9c5cab	0.019087156
179	0x3bf4033c	0.0074466746
180	0x3d97834c	0.0739809
181	0xbca575ab	-0.02019771
182	0xbd33b00a	-0.043869056
183	0xbd813fa3	-0.06310966
184	0x3cbf54bf	0.02335584
185	0xbc51b8fc	-0.012800451
186	0x3cac9e67	0.021071626
187	0x3c5be388	0.013420947
188	0x3c89ee45	0.016837249
189	0xbc29a9e9	-0.010355451
190	0xb9e2eab8	-0.00043280958
191	0xbcbee29e	-0.023301419
192	0xbca13721	-0.019679608
193	0xbcada3b9	-0.021196233
194	0x3ceab6de	0.028651651
195	0x3d364544	0.04449965
196	0xbc09ae6d	-0.008403403
197	0xbd2b966a	-0.041891493
198	0x3b810ce6	0.003938305
199	0x3cd3488e	0.025791433
200	0x3cfee190	0.031113416
201	0x3d2d92a5	0.04237618
202	0x3d4a0d3c	0.049329028
203	0xbd5de59a	-0.054174043
204	0xbbbd670e	-0.0057801073
205	0x3d8bd0b6	0.06826918
206	0xbca89492	-0.020578656
207	0x3d4c87b8	0.04993412
208	0x3ce934dc	0.028467588
209	0x3d887892	0.06663622
210	0x3d11a0d4	0.03555377
211	0x3c5d93b0	0.013523981
212	0xbae2e42e	-0.0017310434
213	0x3d458140	0.048218966
214	0xbd4cb526	-0.049977444
215	0xbcfd1e17	-0.030898137
216	0x3d1758a9	0.036949787
217	0x3dbbd961	0.09172321
218	0xbd72e6b8	-0.05930206
219	0x3ac85075	0.0015282767
220	0x3c5f1a2f	0.0136170825
221	0x3d226924	0.03965105
222	0xbd71aa84	-0.059000507
223	0x3c067fdb	0.008209194
224	0xbd8e29b0	-0.06941545
225	0x3cc8430f	0.024446039
226	0x3ce5c9a9	0.02805026
227	0xbd9d9da3	-0.076960824
228	0xbd4d4044	-0.050110117
229	0xbbbe0b6f	-0.005799703
230	0xbda9b0eb	-0.082856975
231	0x3da2d598	0.07950896
232	0xbc6623fa	-0.014046663
233	0xbd30d907	-0.043175723
234	0xbcab752f	-0.0209299
235	0xbd4166a3	-0.047217023
236	0x3b73b697	0.003718769
237	0x3c9c22f5	0.019059638
238	0xbd6b2203	-0.057405483
239	0x3b809c93	0.003924915
240	0xbb271ea6	-0.0025500446
241	0x3c4bd2bd	0.012440381
242	0xbcb8ada3	-0.022543734
243	0xbadb0540	-0.0016709939
244	0xbc822303	-0.015885836
245	0x3d6bc56d	0.057561327
246	0xbcc26a32	-0.023732278
247	0xbc6f97de	-0.01462361
248	0x3d0c6a5f	0.03428113
249	0xbdc7c06c	-0.097534984
250	0x3caf71cc	0.021416567
251	0x3d27bc13	0.040950846
252	0xbd13949c	-0.036030397
253	0xbd3c84e7	-0.046025183
254	0x3ca9b747	0.020717276
255	0x3d99a163	0.07501485
